nlp/models/vector-to-classification/en/SimpleNNClassifier-model-customer-en.pth (torch, 17784 bytes, 4 tensors)

fc1.weight f4 [128, 22]
00000000: 381e d2bc debc 6bbd 6a98 a1bc b47e d1bd
00000010: 9b54 193d 7206 40bd 457c 043e 563f 4cbe
00000020: b740 573e 5335 4cbe 2c30 e83d fc02 d0bd
00000030: 48f7 9c3d a2bc 113e 9481 88bd 23f1 a6bd
00000040: fe94 093e 40b6 2c3e 0d5c 11be 7252 24bd
00000050: 9032 a63d 9955 843c 62d4 16bc 49c1 0abe
00000060: 3b17 043e ed1b 0cbe 63c1 0d3e daba 533e
00000070: 6398 903d f1f0 363e 3a79 293e 0d54 b93d
00000080: 38a4 88bd 7663 033e 5f51 35be 6f95 d8bd
00000090: 05c0 1d3e 2abd 193e b0cb 73b9 5947 c7bd
000000a0: 6aec f5bc 1bdc 8d3d 9e2b 7dbd facd 5d3c
000000b0: 8957 9b3d b73b ebbd 20a0 133e 1877 293e
000000c0: 17cd 29be 38d8 d43d 8032 5bbe d3ba 4b3e
000000d0: 4546 1bbe 9b73 c4bd cfda 0abd a8f9 083e
000000e0: 1cbe d93c 7c9c 293e e934 263e 0d23 cabd
000000f0: d5ba 16be 48c2 d23b 4cf8 0bbe 641d 06be
00000100: e83e 5fbe eb9c d43c b765 a63c e85f 4abe
00000110: a5ad 483e 715d ca3d a692 b73d a514 32be
00000120: eb18 d33d c13f edbd 010e 09be c883 bd3d
00000130: 2fcb fb3d 58e2 123e da9e 1bbe 4934 443e
00000140: 407a 593d 8da4 47be 1647 34be 3072 36be
00000150: 26e3 7fbd 0c6b 6dbd 98cf a2bd e507 0cbe
00000160: ab10 bfbd 162d c63d 786f d7bd e11a 273e
00000170: 5f7d 4c3e 7011 023e 7516 ecbd 330a 15be
00000180: 5751 ebbd 8da7 17be 2600 4abe a0d0 8abd
00000190: 99bc 99bd 208b 1c3c 19dc 00be 6255 4b3d
000001a0: c0c9 453e fec6 3abe 5958 163e 9024 d03d
000001b0: ea6c 423d bb62 24bc ad73 e3bd 36a1 0abe
000001c0: a679 fbbd ee9a 1cbe 4748 55bd 9360 863c
000001d0: 019e 6f3d d45c 26be d234 1fbe 3dee 61bd
000001e0: 5b0d b6bc 6926 fe3c 1dbb 8e3d f6d3 3ebc
000001f0: 85f2 7c3d 4808 023d b2da d6bd a27f 483e
00000200: 4861 dd3c a647 af3d e4da f4bd bd44 30be
00000210: e878 053d 0676 21be 395f c1bd d0dc 0ebe
00000220: 2035 5fbd 07fc 2cbc 89e4 bcbc e4c7 f93d
00000230: 3922 a0bd 6edc 0b3e 5c58 633d d8ac 933d
00000240: d293 6a3d 1892 2e3d 09ed 5c3c 1160 93bd
00000250: 3e42 1abe f99d d6bd 81c0 44be d51f 9a3d
00000260: cb15 24be 9337 7f3c 5eb4 ab3c a7af 41be
00000270: 79b1 3e3e a236 353b 0840 0c3c 3ec1 99bd
00000280: 959c dc3c a487 2f3e 3de8 4c3e 05bd 2a3e
00000290: 4056 223e e97d 22bd 9e9b 32be 273d 2bbe
000002a0: 27f9 4b3d 1970 493e a7ba fd3d ca23 373e
000002b0: 0b1d 5bbd ef3b d03d 2b81 153b aa01 04bc
000002c0: d02f a73c 3f69 503e f6e0 19bd 8884 1dbc
000002d0: 5fdf 17be a6d3 093e 702c a1bd 19fe 453d
000002e0: 7b3d b5bc 5e5b cd3d 1459 dcbd 0658 53be
000002f0: 6298 4d3e 1f55 8ebc 664c 6ebd 249e 58be
00000300: 2d02 bc3d bc35 db3d 083d 84bd 7f3f c53d
00000310: eb7b 6fbc 8017 debd cb9f 23be 6986 e33d
00000320: 090e 243d be0f 19be d5fe 33be 3078 6e3d
00000330: 9e76 47be 453d c23d 747c e2bd a2a1 afbc
00000340: 59f3 37be 75c1 3c3e 815a 0a3d 8df7 343e
00000350: 4c37 e13d 4ac1 57be a250 4b3e 7866 0d3e
00000360: cb12 00be ce06 41be 30cf ddbd 009d 0bbe
00000370: c3f3 cfbd 1a23 4b3e c949 f13d 56e6 313e
00000380: 10be 63be c901 33bd 586d 313d d384 d03d
00000390: a45c eabd 8005 34be a970 063e a112 9f3d
000003a0: 767d f93d 6f3a 07be 8576 483e 98a6 a43d
000003b0: d809 43be cb3d d6bd e00b 4a3e 739a 613d
000003c0: f421 a93d f6fd 533e 0417 08be 1b2c e73d
000003d0: 066c 98bd fbcf 42bd b2b3 393e fafa 0e3e
000003e0: c251 72bc 9dd4 25be 5e8f 283d 93b3 5cbc
000003f0: 0689 1a3e 46c5 2f3e cbca 46be c2bb 55be
-0.025649175 -0.057553165 -0.019725997 -0.10229245 0.0374342 -0.046881147 0.1293803 -0.19946036
0.2102078 -0.19942217 0.11337313 -0.10156819 0.07664353 0.14232114 -0.0666534 -0.08151462
0.13435742 0.16866398 -0.14195271 -0.04011769 0.08115113 0.016154097 -0.009205909 -0.13550295
0.12899487 -0.13682528 0.13843302 0.20676747 0.070603155 0.1786535 0.1655015 0.090492345
-0.06671947 0.1283091 -0.17706822 -0.10575377 0.15405281 0.15013567 -0.00023250165 -0.09730405
-0.030019958 0.069267474 -0.061809175 0.013537878 0.075850554 -0.11485999 0.14416552 0.16549337
-0.16582142 0.10392803 -0.21405983 0.19895487 -0.15163524 -0.095923625 -0.03390008 0.13376486
0.026579909 0.165636 0.16231121 -0.09869967 -0.14719708 0.0064318515 -0.13668936 -0.13097149
-0.2180134 0.02595373 0.020312173 -0.19763148 0.1959749 0.09881104 0.08963518 -0.17390688
0.10307487 -0.11584426 -0.13384248 0.09253651 0.122946136 0.14344156 -0.15197316 0.1916057
0.053095102 -0.19496365 -0.17605242 -0.17816997 -0.062472485 -0.057963416 -0.079497516 -0.13674887
-0.09329351 0.09676568 -0.10519308 0.16318847 0.199697 0.12701964 -0.11527721 -0.14554672
-0.11490124 -0.1481001 -0.19726619 -0.06778073 -0.07506675 0.009554654 -0.1258396 0.049641974
0.19315243 -0.18239972 0.1468214 0.10163224 0.04746715 -0.010033305 -0.11106048 -0.1353806
-0.12279062 -0.15293476 -0.052070882 0.016403472 0.058500294 -0.16246349 -0.15547493 -0.055158842
-0.022223165 0.031024175 0.06969283 -0.011647215 0.061754722 0.03174618 -0.104909316 0.19579938
0.027023926 0.08558588 -0.119558126 -0.17213722 0.03258601 -0.15767679 -0.094419904 -0.13951421
-0.054494023 -0.010558135 -0.023058193 0.12196329 -0.078190275 0.13658306 0.055504188 0.07210702
0.05726988 0.042619795 0.013484248 -0.071960576 -0.15064332 -0.1047935 -0.1921406 0.07525603
-0.16023938 0.015577215 0.02096003 -0.18914662 0.18622388 0.0027650972 0.008560188 -0.07507561
0.026930133 0.17141587 0.20010467 0.16673668 0.15853214 -0.03967086 -0.17442176 -0.16722547
0.049798157 0.19671668 0.12389117 0.17884746 -0.053494494 0.101676814 0.0022812586 -0.008057037
0.020408541 0.20352648 -0.037568055 -0.009614117 -0.14831303 0.13459644 -0.07869804 0.04833803
-0.022124043 0.100271925 -0.10759178 -0.20639047 0.2007766 -0.017374573 -0.058178328 -0.21154076
0.091801025 0.107036084 -0.06456953 0.096312515 -0.014616947 -0.10844326 -0.15978925 0.11109621
0.040052447 -0.14947411 -0.1757768 0.05822009 -0.19478843 0.094843425 -0.11058894 -0.021439377
-0.17963924 0.18433173 0.033777718 0.17672558 0.10996875 -0.21069828 0.19854978 0.1380862
-0.12507169 -0.18850252 -0.108305335 -0.1363411 -0.10153916 0.19837609 0.117816515 0.17373022
-0.22240472 -0.043702874 0.04331717 0.10181584 -0.11443451 -0.17580223 0.13128914 0.07767225
0.12182133 -0.13205884 0.19576462 0.08039588 -0.19046724 -0.10461005 0.19731092 0.055078935
0.08258429 0.20702347 -0.1329003 0.11287709 -0.07442479 -0.047561627 0.18134955 0.13962927
-0.01479 -0.16194387 0.04115235 -0.013470548 0.15091333 0.17165098 -0.19413297 -0.20872405

fc1.bias f4 [128]
00000000: b632 573e 856e 053d 7ff6 1f3e 8c18 4abe
00000010: dba7 d4bd 94fa 493e a821 2bbd 7b65 633d
00000020: 2986 443e 0c01 ed3d aab2 a63d 559f 94bc
00000030: 8d71 dbbd 4984 40be a1b0 8cbd 3ac6 543d
00000040: c506 b53d 8d4e cdbd d7c9 113d 7a67 f8bc
00000050: f9a8 ec3d 0fe9 3bbe d2e5 31be e951 d43d
00000060: ca80 273e c286 213e eb0c 22be 17bb 1ebe
00000070: 1aeb 2abd 016d a93d 7182 1abe 91ff 81bd
00000080: 844a 3abe 35cd 21bd 44c8 ba3d f9b6 83bc
00000090: e28d f9bd ed53 253c 451f d93c 08b6 f33d
000000a0: 2578 2d3d fd13 a63c 0c41 503e 3a12 18ba
000000b0: 8ee9 41be 470d d93d 78ce 073e 3c6d 0e3e
000000c0: 7fac 06be da9e d0bc 2fd2 32be 7edf 12be
000000d0: 83a4 14be 194d 49be 2e78 323e 5fb6 013e
000000e0: ba04 953d 2326 813d b497 8f3c e444 3fbe
000000f0: 0a88 58be f5bb 563e 3a8a 23bb 1daa 24be
00000100: 73a2 1bbe e693 183e f1a2 14be f99d ac3d
00000110: 715a d8bd d6cb 4ebe 2b15 46bb 9d39 433e
00000120: 49ca 87bd 6e23 643e 5ea2 6a3c 543d 31be
00000130: 81bc 1bbd 9bab 3c3c 6d2f d43d 8ba4 2bbe
00000140: c610 9bbd 1105 98bd 6953 923d 18b2 823d
00000150: 4f59 3bbd 1c93 c1bc e08f 483d ffef 3b3e
00000160: b6df 1abd 5f1a 383e 9c12 18bd 570b 253d
00000170: 6cca 503e 49b4 353e c83a c53c 7086 373e
00000180: 5621 18be 039c afbd c77a 39be dba0 0f3e
00000190: f622 edbd f348 063e fda1 393e 34d2 70bc
000001a0: 4b94 f4bd 374b 633e a1e1 1fbe bfe3 ba3d
000001b0: 2a3b 193e 2b75 563e e8a9 c03d 1b30 4f3d
000001c0: c6b8 69bd d4d7 1ebe 6d18 363d 8ea8 813d
000001d0: 3e41 edbd df7f 2d3e f885 ecbd fb73 afbd
000001e0: 5f31 27be a6e9 e6bc 14bd 04be 4f44 563e
000001f0: 0fe1 123e 7fcf 34be eebe 16be 7acf a43d
0.21015438 0.032576103 0.15621375 -0.19735926 -0.103835784 0.19724494 -0.041780144 0.0555167
0.19191803 0.11572465 0.08139546 -0.018142382 -0.107150175 -0.18800463 -0.06869627 0.051946856
0.08839182 -0.10024748 0.03559288 -0.030322779 0.115556665 -0.18350624 -0.17372826 0.103671856
0.16357723 0.15774062 -0.1582524 -0.15501057 -0.041728117 0.08272744 -0.15088822 -0.063475735
-0.18192488 -0.03950234 0.09120229 -0.01607846 -0.12185265 0.01009081 0.026504168 0.11899954
0.042350907 0.020273203 0.20337313 -0.0005801056 -0.1893675 0.105982356 0.13262355 0.13908857
-0.1315174 -0.025466371 -0.17462991 -0.14343068 -0.14515881 -0.19658317 0.17428657 0.12667225
0.07276292 0.06306102 0.017528392 -0.18678623 -0.21145645 0.20970137 -0.0024954216 -0.16080518
-0.15198688 0.14900169 -0.14515282 0.084285684 -0.10564125 -0.20194945 -0.003022502 0.19064946
-0.0663038 0.2227914 0.014320938 -0.17308551 -0.03802157 0.011515523 0.10360608 -0.16761987
-0.07571559 -0.07422841 0.071448155 0.06381625 -0.04573947 -0.023629718 0.048965335 0.1835327
-0.037811004 0.1797881 -0.037127122 0.040294018 0.20389718 0.17744555 0.02407588 0.17922378
-0.14856467 -0.08574679 -0.18113242 0.14026205 -0.11578934 0.13113765 0.181282 -0.014698554
-0.11942347 0.22196661 -0.15613414 0.0912547 0.14963976 0.20943134 0.09407407 0.050582986
-0.05706098 -0.1551202 0.044456888 0.063309774 -0.115847096 0.1694331 -0.1154899 -0.085670434
-0.16327427 -0.028187584 -0.12962753 0.20924495 0.14343666 -0.17657278 -0.14721271 0.080473855

fc2.weight f4 [7, 128]
00000000: 41fe 2c3d 0a06 b9bc 27c0 bebd 2d95 893d
00000010: f436 66bd d688 dd3c 4b49 e83b 8d68 5e3d
00000020: b985 9dbd acb9 7c3d b7f4 123b 7177 e2bc
00000030: 65e6 093d d54e 3dbd 1410 85bd 5e08 5ebd
00000040: 4c01 85bd cc2e 15bd 058f 4b3c 815e 1abd
00000050: d297 86bc b980 253d b734 3f3c 83c4 94bd
00000060: 2d24 a93d 484f a0bd 1233 c83c 5b24 14bd
00000070: f849 6c3d 7dec 9fbd 41ae 4cbd e744 30bd
00000080: 9606 bd3c ec6c e13b 24f1 a5bc 9ad6 903c
00000090: 3261 223c 821c 9ebc 6016 f13c d4c5 103c
000000a0: 93cb 89bd c539 28bc 4880 853c fd47 54bd
000000b0: 0813 923d 8b94 0ebc a563 413a a0f7 943d
000000c0: 508a 59bb e769 a13c ca30 63bd c98a 083d
000000d0: 4eb4 87bd 6ed2 5b3d 4da2 833d d4d3 c9bb
000000e0: d8a8 64bd 06fc 3abd d0e9 ec3c 7720 583d
000000f0: 35a3 333d e4aa 9d3d e648 313d 44e8 813d
00000100: b892 763d aeca 5b3c 51dd 25bd 5082 043d
00000110: a4b2 a8bd d402 0f3d 9ce3 7e3d f01e ccbc
00000120: 712e d8bc 380d c4bd aded adbd f1a8 7ebd
00000130: 0692 b73c 8432 913d 97e6 7ebd c466 99bc
00000140: 5811 4bbd 9329 343c 1920 2fbd 2b8f 4cbd
00000150: e2f4 9cbd 408a 173c 8782 8abd 98fc 38bd
00000160: 7eed 1dbc f7e2 163d 6bdf 293b b72a 963d
00000170: f549 c53c 5ff2 9abd 6972 bb3c a4d9 79bd
00000180: 8d91 14bc 5eb7 b43d 5e97 b1bd 8ee5 bb3c
00000190: 3afe 973c 1870 e83c 5058 50bc 6e1a 803d
000001a0: dfc4 973d 6012 873c 1e2b fb3c eb26 fcbc
000001b0: d7e7 853d d788 c53c eaf0 25bc 646c 8a3d
000001c0: f4b5 b3bb d6a3 85bd 400a a93d aab0 77bd
000001d0: 0de7 acbd 955b 903d ad4d f73b 1bcc 643d
000001e0: 20cb 3c3d 195a 17bc 7076 973d 6ff2 a43d
000001f0: 80d5 6e3d 462c a43d d469 a33c 3a57 313d
00000200: e7a8 aebc f147 213d c1b2 3abd d124 67bd
00000210: 18ed 84bd 625c 2b3d 9c33 813d 429e a63d
00000220: 0adb ecbc 79fd 5b3d 5fe3 8a3d 5ba1 7f3d
00000230: b208 37bd 1d27 d2bc 9859 923d 13f1 d3bc
00000240: f621 3b3d 887f 983d ab79 8ebc 7c7b df3c
00000250: 5d98 ac3d 2164 46bd c782 c03c db22 0b3d
00000260: 7db6 86bd 2c8e ff3c d005 19bd 7e94 2d3d
00000270: 7fa2 cb3b f739 c53c 6436 a53d f889 123d
00000280: 3673 9cbc 72f8 e13c 6e50 4dbc bc19 58bb
00000290: 013d 023d 5399 2cbb 5474 b83b 84c5 89bd
000002a0: 814f 85bd c00b 9b3c 2c36 883d d278 8bbc
000002b0: 9171 1abc 2db4 a83d c998 8dbd 9477 703d
000002c0: 6c60 6abd 60e5 70bc a490 2a3c bb24 b83c
000002d0: 8af4 a63c 828b 1a3d 49f8 10bd 0351 3abd
000002e0: f257 973d c610 3bbd b50b 2fbd c777 413d
000002f0: 7226 ad3c 5c3a 173c 951a 423d 6ac9 6a3d
00000300: 88de 6f3c 1812 c9ba b044 31bd 308b a23d
00000310: f22d 733d a6e1 e03c 99e8 9dbd 08e7 db3c
00000320: 0983 37bd a5f8 283d ee63 4cbd 4787 753d
00000330: 408d 45bc 1c97 5c3d 7964 433d ae73 65bc
00000340: 80ff 5cbd e31b a9bb 9f8e 23bc 6d67 30bd
00000350: c18f 49bc d455 aebd b98c b13c 18ee dd3c
00000360: dd0c a7bd 3923 c93c 711b 90bc 52f1 873d
00000370: 25ed 6e3d ef93 a43c 71cc 0dbd 078d 033d
00000380: a100 9ebd d18b 89bd f65f b13c 92c4 813c
00000390: 87cb 3dbd 2fbe 98bd f2c6 8b3d ee04 21bc
000003a0: e914 34bd baa7 523b 0173 ee3c 129d 693c
000003b0: ef4f 13bd 1f08 7b3d e225 fd3c b541 013d
000003c0: 53d5 5dbd 7f1e 743d 14d5 943d c58c 6fbc
000003d0: 2056 a0bd 4dcd 963d 1011 993c ae2f 51bd
000003e0: 6bc3 91bd 2b98 88bd 0687 2a3d 254d a13d
000003f0: 5bbb 623d 27bf 92bd fc24 643c 4326 f63c
0.042234663 -0.022585887 -0.09313994 0.06717906 -0.05620475 0.027042788 0.0070888153 0.054298926
-0.07691521 0.061700508 0.0022423693 -0.027644845 0.033666987 -0.04621776 -0.06497207 -0.0542072
-0.06494388 -0.036421582 0.012424235 -0.037687782 -0.016429815 0.040405963 0.011670283 -0.07264044
0.08258853 -0.07827622 0.024438415 -0.036167484 0.05768773 -0.078087784 -0.04997087 -0.04303446
0.02307443 0.0068794396 -0.020256586 0.017680455 0.0099108685 -0.019300703 0.029429615 0.008836228
-0.06728282 -0.01026768 0.01629652 -0.051826466 0.07132536 -0.008702408 0.0007377214 0.07273793
-0.0033194013 0.019703818 -0.05546645 0.03333548 -0.06626187 0.05366748 0.06427441 -0.006159285
-0.055825084 -0.045650505 0.028920084 0.052765336 0.04385682 0.076986104 0.043282412 0.06343129
0.060198516 0.013415022 -0.040494267 0.03235084 -0.08237198 0.034914806 0.062228784 -0.024917096
-0.026389332 -0.09572834 -0.08492599 -0.062172834 0.022408497 0.07089713 -0.062231626 -0.01872576
-0.049577087 0.01099624 -0.04275522 -0.049941223 -0.07663895 0.00924927 -0.06763177 -0.045162767
-0.009639142 0.036837544 0.002592052 0.07332366 0.024083117 -0.0756576 0.022881703 -0.060998574
-0.009067905 0.08824037 -0.08671449 0.022936609 0.018553842 0.028373763 -0.012716368 0.06255041
0.07410597 0.016488254 0.030660208 -0.030780276 0.065383606 0.024113102 -0.010128239 0.06758955
-0.005484337 -0.0652539 0.08253908 -0.060471214 -0.08442507 0.07048718 0.0075471015 0.055858713
0.046092153 -0.00923779 0.07395637 0.08054053 0.05830908 0.08016257 0.019947924 0.043296076
-0.021320773 0.03937525 -0.04558063 -0.056431595 -0.064905345 0.04183615 0.06308672 0.08135654
-0.02891304 0.053708527 0.06781649 0.06240974 -0.044686027 -0.025653416 0.07145995 -0.02587179
0.045686685 0.074462 -0.017392 0.027280562 0.084274985 -0.048435334 0.02349986 0.033968788
-0.065777756 0.031195723 -0.03735906 0.04237794 0.0062144394 0.024075491 0.08067015 0.03577611
-0.019097906 0.027584288 -0.012531383 -0.0032974323 0.03179646 -0.0026336506 0.005629102 -0.06727126
-0.06509305 0.018926501 0.066509575 -0.017025385 -0.00942649 0.08237491 -0.06913907 0.05870779
-0.05722086 -0.014703125 0.010410462 0.022478452 0.020380277 0.0377307 -0.035393033 -0.045487415
0.07389821 -0.045670293 -0.042735774 0.04723337 0.021136496 0.009230223 0.04738863 0.05732099
0.014640458 -0.0015340475 -0.043278396 0.07936704 0.05936999 0.027451348 -0.0771038 0.026843563
-0.0448027 0.04125275 -0.049899988 0.059943464 -0.012057602 0.053855047 0.04770324 -0.014004631
-0.0539546 -0.005160795 -0.009982734 -0.043067385 -0.01230234 -0.08512464 0.021673547 0.027091071
-0.0815675 0.024552928 -0.01759121 0.06637825 0.058331627 0.020090071 -0.0346188 0.032116916
-0.07714964 -0.06716121 0.021652203 0.015840802 -0.046336677 -0.0745815 0.06825055 -0.0098278355
-0.043965254 0.003214343 0.029107573 0.01425864 -0.035964902 0.06128704 0.030901853 0.031556804
-0.05415852 0.059599396 0.07267204 -0.014620964 -0.07828927 0.07363377 0.018684894 -0.05107086
-0.07117351 -0.06669649 0.041632675 0.07876042 0.055354457 -0.07165366 0.013924833 0.030047541

fc2.bias f4 [7]
00000000: ce21 8fbd 0379 68bd fa67 c23c 0058 a334
00000010: 53b9 2e3d f004 823d cd36 c53c
-0.069888696 -0.05675603 0.02373122 3.0425144e-07 0.042657208 0.06348598 0.024073983
